tools/trained_nn_models/training_5870c524a74c0e90c4e5a6ea40aac7bb/mlp_epoch_232.pt (torch, 637943 bytes, 13 tensors)

model.0.weight f4 [64, 2393]
0.007289167 0.0014118884 -0.00381126 -0.008862632 -0.012811996 -0.006285569 0.011984349 0.019892912
0.004465416 -0.0035976833 -0.00643697 -0.0035848548 -0.009274294 -0.00079263205 -0.008846829 -0.009202503
0.0011475222 0.0081728855 -0.0038502165 -0.01410681 -0.011521468 -0.010616286 -0.0072290734 -0.007133876
-0.013251008 -0.010952647 0.0033951597 0.006284631 -0.0019562405 -0.008852208 -0.005357934 -0.007869713
0.003776669 0.007312606 0.0038553497 -0.0001165054 -0.0056872317 -0.0075971363 0.0028221505 -0.0013159469
0.013063595 0.004698465 0.0147162005 0.030753016 0.011378224 0.003414574 0.006264546 0.010302636
0.025117766 0.014011972 0.01872488 0.0023839662 0.007871833 0.0071347943 0.013254064 0.010950607
-0.0033975719 -0.0062841484 0.0019587297 0.008848513 0.0053559686 0.007871004 -0.023254734 0.001657503
0.0019361003 0.0019380801 0.0009976582 -0.0023048846 -0.00018857002 0.0015868727 0.0057570473 0.009202251
0.001657503 -0.0023048846 0.007998415 0.008275577 0.0072959317 0.003417575 -0.002183992 0.0022846132
0.010133872 0.019998 0.013997256 0.007998415 -0.002183992 0.004567981 0.007740436 0.012442924
0.016459683 0.022708796 -0.010445402 -0.0137463985 -0.0029955774 0.005282165 0.004567981 0.022708796
0.002388609 -0.0024622106 -0.025908813 0.020949658 -0.0072538573 -0.0068667927 -0.0065516615 0.019223629
-0.0020595482 -0.0033449337 -0.0060985964 0.0036051879 0.008633379 -0.0038472181 0.0021329406 0.00032417223
0.008608563 0.004753558 0.013571574 0.0029652729 0.0071644797 0.0026883795 0.009237919 -0.004611219
0.006605111 -0.0015635707 0.007440515 0.0034902128 0.008419623 -0.0066832993 0.009302641 -0.0035990216
-0.0044201985 -0.007898108 -0.00658431 0.0010924903 0.0062499116 0.004359458 0.0009990808 0.001731085
-0.011645943 0.0043598884 0.0049470696 -0.012105743 0.010811852 -0.0060251625 0.004967496 -0.005207899
-0.020466033 -0.0012017532 -0.006419799 -0.0079585295 -0.00031915138 -0.00307595 0.0013254163 -0.0003140583
-0.008015795 7.3780604e-05 0.0044260756 -9.936433e-05 0.004344035 0.00054174155 -0.003109235 -0.00013788685
0.00042947405 0.0008057907 -0.002497676 -0.0027529306 0.001396427 0.0006527659 -0.000454434 -0.0030632482
-0.0074837618 0.0029423325 -0.00019548608 6.579034e-05 -0.006007766 0.0036500627 0.006830693 0.0013698462
0.005794514 0.0021073641 0.0043732566 -0.0025562504 -0.009295052 -0.0028319943 -0.013471755 0.008012746
-0.014887298 0.0012832852 -0.009621244 0.0008269747 -0.0045599435 0.003239546 0.024066884 -7.388401e-05
0.018631773 0.006817612 0.007481934 0.0054975003 0.0052196407 0.009816974 0.0115421675 0.0023387428
0.006602848 0.003064843 0.0048593287 0.0028380272 -0.0037623474 0.008245505 -0.033633478 0.008027288
0.00045164963 -0.0030628745 -0.0013196496 -0.00031213567 0.008013047 7.028013e-05 -0.004432459 -0.00010150151
-0.004344624 0.00054156565 0.0031099436 -0.00013544816 -0.0004337696 0.00080681604 0.0024959706 -0.0027542207
-0.0013974039 0.0006533452 0.000451804 -0.0030627954 -0.02823955 -0.0055732075 -0.00016355919 0.00071175065
-0.00022909493 0.0010696893 0.00016343084 -0.002621752 0.0010698357 0.0071617486 -0.00082646956 0.0036992277
0.0013341507 0.00040534118 -0.0039532245 0.0014534442 -0.005087073 -0.013463893 0.0057385596 0.004467439
-0.00016355919 0.00071175065 -0.00082646956 0.0036992277 0.0005377259 -0.0022819228 0.0008181842 -0.0020449203
00000000: f7d9 ee3b 1d0f b93a 55c6 79bb 9334 11bc
00000010: 68e9 51bc 2df7 cdbb 015a 443c 76f6 a23c
00000020: a052 923b 1cc7 6bbb 38ed d2bb e2ef 6abb
00000030: 35f3 17bc a3c8 4fba 4af2 10bc 18c6 16bc
00000040: 7568 963a 91e7 053c ea53 7cbb 4020 67bc
00000050: 8ac4 3cbc eeef 2dbc dde1 ecbb 4ac3 e9bb
00000060: c11a 59bc bb72 33bc 5481 5e3b 4eef cd3b
00000070: 4534 00bb da08 11bc 9c91 afbb f8ef 00bc
00000080: fe81 773b 969e ef3b 09aa 7c3b 5c54 f4b8
00000090: f55b babb 66f1 f8bb d4f3 383b da7b acba
000000a0: b008 563c 95f5 993b 381c 713c c0ed fb3c
000000b0: bb6b 3a3c 0cc7 5f3b d246 cd3b 63cc 283c
000000c0: c6c3 cd3c 7892 653c eb64 993c 513c 1c3b
000000d0: dcf8 003c feca e93b 9327 593c 2d6a 333c
000000e0: cca9 5ebb 42eb cdbb 085e 003b 5af9 103c
000000f0: 1f81 af3b 62f5 003c b680 bebc 9240 d93a
00000100: bfc4 fd3a 2d07 fe3a dbc3 823a 8c0d 17bb
00000110: e1ba 45b9 9dfe cf3a 9da5 bc3b 0ac5 163c
00000120: 9240 d93a 8c0d 17bb c90b 033c 4996 073c
00000130: b612 ef3b 65f9 5f3b 4e21 0fbb 73b9 153b
00000140: 8a08 263c d8d2 a33c bf54 653c c90b 033c
00000150: 4e21 0fbb 01af 953b 7ca3 fd3b 68dd 4b3c
00000160: 75d6 863c cc07 ba3c 3123 2bbc 9338 61bc
00000170: 7351 44bb 0316 ad3b 01af 953b cc07 ba3c
00000180: 368a 1c3b 0a5d 21bb b83e d4bc 9e9e ab3c
00000190: c4b1 edbb d502 e1bb 52af d6bb df7a 9d3c
000001a0: 7cf9 06bb ad36 5bbb bcd6 c7bb 0445 6c3b
000001b0: 0473 0d3c 9c21 7cbb cec8 0b3b a9f5 a939
000001c0: ee0a 0d3c bcc3 9b3b 4f5b 5e3c 0655 423b
000001d0: 03c4 ea3b 862f 303b a45a 173c b519 97bb
000001e0: b06f d83b baf0 ccba 90cf f33b 0ebc 643b
000001f0: 75f2 093c 94ff dabb 1b6a 183c 90dd 6bbb
00000200: 50d7 90bb 1167 01bc 32c1 d7bb e431 8f3a
00000210: 0fcc cc3b c9d9 8e3b 97f3 823a 93e5 e23a
00000220: a0ce 3ebc 65dd 8e3b 071b a23b 2b57 46bc
00000230: 3224 313c ba6e c5bb 60c6 a23b 06a7 aabb
00000240: 62a8 a7bc 2584 9dba 2d5d d2bb 7e64 02bc
00000250: c653 a7b9 e195 49bb 97b9 ad3a 31a8 a4b9
00000260: ae54 03bc a9ba 9a38 9d08 913b d261 d0b8
00000270: 6858 8e3b a903 0e3a 4fc4 4bbb b895 10b9
00000280: 082b e139 b33b 533a 0db0 23bb 836a 34bb
00000290: 5108 b73a 611e 2b3a 1941 eeb9 c7c0 48bb
000002a0: 583a f5bb 26d4 403b 65fb 4cb9 ebf8 8938
000002b0: cbdc c4bb e435 6f3b 02d4 df3b 698c b33a
000002c0: e8df bd3b b41b 0a3b 894d 8f3b c486 27bb
000002d0: 464a 18bc fb98 39bb a3b8 5cbc e547 033c
000002e0: dbe9 73bc e833 a83a 6ca2 1dbc 55c9 583a
000002f0: 946b 95bb 904e 543b ea27 c53c 2df2 9ab8
00000300: a9a1 983c 4666 df3b 032b f53b 6024 b43b
00000310: 8509 ab3b 60d7 203c 5c1b 3d3c 9845 193b
00000320: b45c d83b 88db 483b 013b 9f3b 32fe 393b
00000330: b791 76bb 2818 073c 42c3 09bd e384 033c
00000340: 63cb ec39 82ba 48bb 18f8 acba 24a6 a3b9
00000350: 2849 033c 5c63 9338 293e 91bb 35dd d4b8
00000360: 595d 8ebb dbf7 0d3a 32d0 4b3b 1707 0eb9
00000370: 926b e3b9 8280 533a 7093 233b 2880 34bb
00000380: 1829 b7ba 4145 2b3a 1be0 ec39 2eb9 48bb
00000390: a156 e7bc 749f b6bb 1681 2bb9 c794 3a3a
000003a0: 3439 70b9 d134 8c3a a25e 2b39 b3d1 2bbb
000003b0: bb39 8c3a 1aad ea3b 6fa7 58ba be6e 723b
000003c0: abde ae3a f983 d439 0d8a 81bb 7f81 be3a
000003d0: 76b1 a6bb a997 5cbc 870a bc3b 9863 923b
000003e0: 1681 2bb9 c794 3a3a 6fa7 58ba be6e 723b
000003f0: 2df6 0c3a 508c 15bb 6a7b 563a 1204 06bb

model.0.bias f4 [64]
-5.988109e-05 3.766626e-05 0.00015419463 6.0402e-41 8.506777e-06 0.00015688565 -1.0004669e-05 3.116465e-05
-0.00016648644 0.00012352002 0.000111570655 3.9211613e-05 -4.3405464e-05 6.552287e-05 -1.0181414e-05 9.1652764e-05
-0.0002098936 5.6529447e-05 0.0001135817 2.907902e-05 1.9565576e-05 4.3528646e-05 4.881434e-05 -1.1225229e-05
-8.055481e-05 -9.0363307e-07 -4.790538e-05 6.840063e-06 2.6140426e-05 7.952908e-06 2.1739876e-05 -2.5572244e-05
-3.84703e-05 -7.0478614e-05 4.7384972e-07 9.789726e-06 -0.00012227856 3.092166e-05 -4.5121513e-05 -7.870742e-05
1.75221e-05 6.362195e-05 6.429958e-06 -6.087561e-06 4.080551e-05 -8.038197e-05 4.3067597e-05 3.9981147e-05
7.41731e-05 0.00010378035 0.00015884692 -1.5796559e-05 4.3012144e-05 -1.2892878e-05 -0.00010095875 -3.965063e-06
0.00021137872 1.1298667e-05 -5.8287003e-07 -1.2051343e-05 -7.903165e-05 7.555382e-05 -4.9324128e-05 7.39928e-05
00000000: d528 7bb8 d7fb 1d38 4eaf 2139 60a8 0000
00000010: 54b8 0e37 ac81 2439 bad9 27b7 cab6 0238
00000020: dd92 2eb9 2785 0139 0afb e938 2677 2438
00000030: 430e 36b8 5369 8938 d7d0 2ab7 b435 c038
00000040: e216 5cb9 081a 6d38 b632 ee38 b8ee f337
00000050: c120 a437 8792 3638 00be 4c38 fe53 3cb7
00000060: 89ef a8b8 3191 72b5 03ee 48b8 b283 e536
00000070: 2348 db37 7b6d 0537 075e b637 fa83 d6b7
00000080: 2c5b 21b8 ebcd 93b8 6965 fe34 8e3e 2437
00000090: e737 00b9 e1b1 0138 db40 3db8 b90f a5b8
000000a0: 6cfc 9237 c66c 8538 ebc0 d736 c043 ccb6
000000b0: 9526 2b38 be92 a8b8 7ba3 3438 6eb1 2738
000000c0: 618d 9b38 a7a4 d938 2590 2639 da82 84b7
000000d0: f067 3438 7d4e 58b7 d1b9 d3b8 a20b 85b6
000000e0: 8ba5 5d39 688f 3d37 8676 1cb5 2030 4ab7
000000f0: cbbd a5b8 a672 9e38 61e1 4eb8 952c 9b38

model.1.weight f4 [64]
0.16105075 0.14963342 0.62450844 4.9176e-41 0.686017 0.43757397 0.17834052 0.13807935
0.39004958 0.8325218 0.70379865 0.62557864 0.68307835 0.7622465 0.13678895 0.77283466
0.71975446 0.15719107 0.71388423 0.12740192 0.84818757 0.5643179 0.16667688 0.7101607
0.73266727 0.1969452 0.6597432 0.96180815 0.76932687 0.74600804 0.16626334 0.14248155
0.52600116 0.7678682 0.7298836 0.55553687 0.281007 0.13722254 0.71994656 0.61740613
0.69016737 0.68669915 0.38335884 0.16852857 0.66974586 0.26122338 0.13035505 0.15479717
0.76971143 1.0571519 0.6867827 0.933457 0.36972228 0.11763364 0.7201752 0.1319757
1.0458765 0.12985137 0.1519127 0.14224964 0.7219305 0.1518265 0.185278 0.52761847
00000000: 7dea 243e 8139 193e c9df 1f3f 1589 0000
00000010: cf9e 2f3f b209 e03e e69e 363e ac64 0d3e
00000020: 94b4 c73e 2620 553f 262c 343f ec25 203f
00000030: 39de 2e3f 9622 433f 6712 0c3e 7ed8 453f
00000040: d441 383f b2f6 203e 1ec1 363f a675 023e
00000050: d222 593f 2377 103f 58ad 2a3e 17cd 353f
00000060: 1590 3b3f 01ac 493e eee4 283f 0f39 763f
00000070: 9bf2 443f 62fa 3e3f f040 2a3e afe6 113e
00000080: 03a8 063f 0393 443f a7d9 3a3f aa37 0e3f
00000090: 26e0 8f3e 1184 0c3e 6b4e 383f 540e 1e3f
000000a0: cfae 303f 84cb 2f3f 9c47 c43e c192 2c3e
000000b0: 7774 2b3f 12bf 853e cb7b 053e 2683 1e3e
000000c0: cf0b 453f c150 873f fed0 2f3f 0af7 6e3f
000000d0: 3d4c bd3e e8e9 f03d 675d 383f a324 073e
000000e0: 48df 853f c2f7 043e 018f 1b3e e4a9 113e
000000f0: 70d0 383f 6878 1b3e 84b9 3d3e 0112 073f

model.1.bias f4 [64]
-0.05587715 0.026724897 -0.2926544 4.912e-41 -0.50478905 -0.24801022 0.03783683 0.002681511
-0.34804094 -0.43759692 -0.47181076 -0.56732506 -0.3675154 -0.5238731 -0.040819515 -0.3412363
-0.45862082 0.03433724 -0.288559 0.013119975 -0.40437606 -0.46776113 0.039913945 -0.5872803
-0.44155082 0.08952539 -0.6397466 -0.5631969 -0.40806887 -0.47241658 0.09177241 0.015389244
-0.26669407 -0.36294013 -0.4018724 -0.4880528 -0.10929794 -0.029949294 -0.28247115 -0.4879207
-0.67425644 -0.42382237 -0.26575318 0.044865556 -0.19024391 -0.083197124 0.016204463 0.07319153
-0.50485504 -0.5361581 -0.44296446 -0.47759238 -0.3270981 -0.004729239 -0.32519504 0.008991763
-0.86216515 -0.02805367 0.06364081 0.006552624 -0.52623534 0.026691906 -0.119106084 -0.31041375
00000000: 70df 64bd 2cee da3c ccd6 95be ed88 0000
00000010: db39 01bf 64f6 7dbe cbfa 1a3d 4abc 2f3b
00000020: 6c32 b2be b40c e0be 2e91 f1be 373c 11bf
00000030: fa2a bcbe 8c1c 06bf 5d32 27bd 86b6 aebe
00000040: 59d0 eabe 35a5 0c3d 01be 93be 2af5 563c
00000050: 610a cfbe 637e efbe ce7c 233d 0058 16bf
00000060: f312 e2be 1659 b73d 6fc6 23bf ac2d 10bf
00000070: 67ee d0be 96e0 f1be 2cf3 bb3d 2b23 7c3c
00000080: 208c 88be 4ad3 b9be 38c2 cdbe 0ee2 f9be
00000090: 99d7 dfbd 3958 f5bc 0fa0 90be bed0 f9be
000000a0: 129c 2cbf 3fff d8be cd10 88be f2c4 373d
000000b0: 4dcf 42be 4163 aabd 39bf 843c 71e5 953d
000000c0: 2e3e 01bf a841 09bf 3dcc e2be fd86 f4be
000000d0: 6779 a7be bbf7 9abb f77f a6be 3052 133c
000000e0: dbb6 5cbf cfd0 e5bc 1d56 823d 65b7 d63b
000000f0: 5cb7 06bf fca8 da3c e4ed f3bd 8dee 9ebe

model.1.running_mean f4 [64]
0.0019386839 -0.01410081 0.0044002295 6e-45 0.004762842 0.004278183 -0.011833269 -0.015579286
-0.054126408 0.0055691763 0.0010766842 -0.06301735 -0.009356188 0.0044222213 0.0058843573 0.00022638415
0.00034823042 -0.012042609 -0.0051169586 0.014623104 -0.026343975 -0.0031532017 -0.010359897 -0.0020628273
-0.0028226783 0.017416796 -0.060435966 -0.028215555 0.0027319198 -0.0024600714 0.024439186 -0.015319142
-0.00043867988 0.0014098965 0.005361532 0.0016772909 0.0030044059 0.0072452296 -0.015422253 0.0017961368
-0.05780882 0.005860138 -0.019048303 -0.0096539995 0.004393594 -0.0035251721 -0.013558195 0.02212701
-0.009292903 -0.03292704 0.0049660397 0.002067126 -0.052794978 0.01301427 -0.0035182082 -0.014587687
-0.0018782922 0.0070203166 0.022460014 -0.014525667 0.0041529066 -0.011650177 -0.035338376 0.00019383691
00000000: 701b fe3a 1507 67bc cd2f 903b 0400 0000
00000010: 9d11 9c3b 0030 8c3b 54e0 41bc 4340 7fbc
00000020: a7b3 5dbd a37d b63b 871f 8d3a 3e0f 81bd
00000030: b24a 19bc 48e8 903b 91d1 c03b 8861 6d39
00000040: b292 b639 5d4e 45bc 29ac a7bb be95 6f3c
00000050: 52cf d7bc f2a5 4ebb 8fbc 29bc 8030 07bb
00000060: affc 38bb abad 8e3c b48b 77bd 4f24 e7bc
00000070: 020a 333b 2639 21bb b034 c83c 23fd 7abc
00000080: 9efe e5b9 47cc b83a caaf af3b 8bd8 db3a
00000090: 91e5 443b 6469 ed3b 9ead 7cbc 5a6c eb3a
000000a0: f1c8 6cbd 6706 c03b 300b 9cbc cf2b 1ebc
000000b0: 23f8 8f3b 9306 67bb 3123 5ebc b443 b53c
000000c0: 4341 18bc 81de 06bd 29ba a23b 9f78 073b
000000d0: 8c3f 58bd ce39 553c bd91 66bb 3201 6fbc
000000e0: 0731 f6ba af0a e63b 10fe b73c 10fd 6dbc
000000f0: 1b15 883b 62e0 3ebc f9be 10bd b340 4b39

model.1.running_var f4 [64]
0.64979905 1.2633282 0.3978197 6e-45 0.36702612 0.35290018 1.1979369 1.4820945
2.9677014 0.74112624 0.31782123 3.8329442 0.39929932 0.47412306 0.9324528 0.32783157
0.4159906 1.3635033 0.3904241 1.5341353 0.7348679 0.3415249 1.1828573 0.36097953
0.4018767 0.7102983 4.018162 0.9577387 0.43292785 0.37676707 1.1245888 1.4478418
0.30793855 0.18558396 0.37032354 0.2397894 0.33620742 0.9921138 0.42280784 0.5282341
3.892701 0.37314504 0.6600986 1.0045556 0.49361202 0.47161466 1.5276426 1.2930204
0.3076833 1.2378671 0.34274644 0.2899907 2.9402006 1.4605461 0.5198732 1.2514352
0.20097482 1.124327 1.4003156 1.4190608 0.4269738 1.2998711 1.5819772 0.28223923
00000000: 3b59 263f bdb4 a13f 06af cb3e 0400 0000
00000010: d9ea bb3e 55af b43e ff55 993f 46b5 bd3f
00000020: d2ee 3d40 73ba 3d3f 77b9 a23e f54e 7540
00000030: f670 cc3e 42c0 f23e 3ab5 6e3f 8ad9 a73e
00000040: b8fc d43e 4787 ae3f abe5 c73e 8c5e c43f
00000050: 4d20 3c3f 5adc ae3e de67 973f 4fd2 b83e
00000060: c8c2 cd3e 1cd6 353f c894 8040 5d2e 753f
00000070: b8a8 dd3e 9de7 c03e 87f2 8f3f e152 b93f
00000080: 1faa 9d3e b909 3e3e 0c9b bd3e 5a8b 753e
00000090: 6123 ac3e 2cfb 7d3f 457a d83e 5a3a 073f
000000a0: 0322 7940 de0c bf3e 39fc 283f 4795 803f
000000b0: b7ba fc3e 7a77 f13e cb89 c33f b181 a53f
000000c0: aa88 9d3e 6e72 9e3f 767c af3e a979 943e
000000d0: 3f2c 3c40 2df3 ba3f 6916 053f 072f a03f
000000e0: 58cc 4d3e f2e9 8f3f 8b3d b33f c9a3 b53f
000000f0: 4f9c da3e 2d62 a63f 3b7e ca3f a981 903e

model.4.weight f4 [64, 64]
-0.007812614 0.0056064134 -0.025260061 4.9156e-41 0.0004320079 0.016499361 0.0036227144 0.015328031
0.014266691 -0.023254218 0.010306358 0.02316072 0.012402953 -0.02780002 -0.00428274 -0.03195785
-0.014466826 -6.1880337e-06 0.0023691568 -0.02762079 0.009832792 0.008073118 0.0021909443 0.015381408
0.020674128 -0.010753897 0.012876026 -0.00870224 -0.00014584884 -0.018101217 -0.017024597 0.0075540943
0.009120547 -0.0022741128 -0.021225108 -0.033330128 0.0057392544 -0.0136705 -0.006581571 0.012507612
0.01060635 -0.017426735 0.020275904 0.00024399578 -0.03487571 0.031016184 0.013435718 -0.024219139
0.006381539 0.009901186 -0.01989378 -0.00056174083 0.015837597 -0.018978484 -0.019727739 0.016876748
0.022151532 -0.01159446 -0.024959996 0.006597823 0.0138634145 0.0054356833 0.018625958 -0.035918396
0.026997842 -0.027423805 0.005885467 4.9373e-41 0.02797397 -0.0016127937 -0.019342074 -0.016733201
0.00515269 -0.008008198 -0.008232612 -0.0044348226 -0.015384935 -0.011339996 0.022939604 -0.006648524
0.0092297895 -0.025694428 -0.01591781 0.004319278 -0.0073188115 0.021601899 -0.02935783 -0.01560683
-0.0064140633 -0.0011745454 -0.0011981213 -0.022301376 -0.050468978 -0.0013740902 -0.0032729253 -0.019300018
0.028464502 -0.030367695 0.00027519828 -0.048738778 0.03506827 0.018014384 -0.018689467 -0.0030162523
-0.0024609775 0.0120317545 0.0139013445 -0.03355196 -0.016477166 0.011672721 -0.021045532 -0.008981008
-0.02085551 -0.024960166 -0.002770069 -0.0416767 0.0072740084 0.013572217 0.018105404 -0.013098826
-0.040134165 0.02032666 -0.0034171748 -0.020431465 -0.012250999 -0.025046185 0.0043792604 -0.026954593
-0.002341298 -0.004510965 0.0044459053 4.9378e-41 0.0010330054 -0.028425861 -0.0059878663 -0.0040398645
0.09674275 -0.015365036 -0.010430689 0.11190175 0.0033209994 0.00072512665 -0.0022079963 0.0110681765
0.010718654 -0.003126446 -0.008745352 0.0078784935 -0.0105492 -0.020494502 -0.00081174076 -0.0039578844
-0.006329353 -0.047215383 0.10907836 -0.01599232 0.0047547533 0.009298213 -0.04438581 -0.0061196717
0.019750964 -0.011454458 0.000915812 0.006610909 -0.005030863 0.008149786 -0.0008390804 -0.014046158
0.11205511 0.005039651 -0.010283648 -0.001370384 0.0023358807 -0.02117263 -0.009859374 -0.036319174
0.005852265 -0.018558163 0.0057455464 -0.00057499984 0.09285261 -0.0014696065 -0.0026066175 -0.006783097
0.017752327 -0.002160142 -0.022773687 -0.007848041 -0.010378602 -0.015981093 0.053456616 0.004870802
0.026527066 -0.026311554 0.011197841 -4.9372e-41 0.029854009 0.0024626472 -0.01425125 -0.012091137
0.0025401677 -0.0028330334 -0.0090855565 -0.0040415805 -0.011307969 -0.011543557 0.023470635 -0.0073115844
-0.007537308 -0.021802638 -0.009717172 -0.00044652357 -0.0039162687 0.021956872 -0.027647361 -0.015573949
-0.009093099 0.0041528996 -0.003846649 -0.017645724 -0.072634846 -0.007680086 -8.9541536e-05 -0.019516693
0.03069287 -0.029616192 -0.0014654516 -0.056097627 0.051004045 0.015584984 -0.015355502 0.0010016459
-0.0071578827 0.0054152263 0.010866628 -0.03156321 -0.015746405 0.028664004 -0.017939283 -0.0017714722
-0.01656296 -0.02062427 0.010102862 -0.040991306 -0.00075882574 0.014225165 0.028694289 -0.0110382
-0.039820544 0.015217616 -0.008175471 -0.016794236 -0.009443976 -0.02197034 0.0026467189 -0.045103256
00000000: 7a00 00bc 01b6 b73b 30ee cebc 0789 0000
00000010: 1e7f e239 ab29 873c 106b 6d3b 6c22 7b3c
00000020: d7be 693c a17f bebc 00dc 283c 8dbb bd3c
00000030: c135 4b3c debc e3bc 3a56 8cbb 3ce6 02bd
00000040: 4406 6dbc cea2 cfb6 db43 1b3b ff44 e2bc
00000050: b819 213c 1c45 043c f295 0f3b 4d02 7c3c
00000060: ca5c a93c 1d31 30bc f8f5 523c d793 0ebc
00000070: 00ef 18b9 0149 94bc 2b77 8bbc 5688 f73b
00000080: 596e 153c 4809 15bb 47e0 adbc 2c85 08bd
00000090: 5b10 bc3b 3cfa 5fbc 38aa d7bb baec 4c3c
000000a0: 42c6 2d3c 83c2 8ebc a719 a63c 1ed9 7f39
000000b0: d5d9 0ebd a715 fe3c 7c21 5c3c 3767 c6bc
000000c0: 3b1c d13b 9638 223c 48f8 a2bc ca41 13ba
000000d0: d9bd 813c c478 9bbc 119c a1bc 1b41 8a3c
000000e0: 2177 b53c b1f6 3dbc e878 ccbc 8d32 d83b
000000f0: 6023 633c d11d b23b 7795 983c 2b1f 13bd
00000100: 942a dd3c e3a7 e0bc e0da c03b a289 0000
00000110: ab29 e53c 6064 d3ba 4573 9ebc 1114 89bc
00000120: e6d7 a83b d134 03bc 14e2 06bc fd51 91bb
00000130: 1811 7cbc 64cb 39bc d6eb bb3c dddb d9bb
00000140: 8b38 173c 1f7d d2bc 1166 82bc bb88 8d3b
00000150: a4d2 efbb 77f6 b03c d57f f0bc cab3 7fbc
00000160: 102d d2bb 34f3 99ba 480a 9dba 60b1 b6bc
00000170: 8fb8 4ebd d11a b4ba 937e 56bb 121b 9ebc
00000180: 632e e93c acc5 f8bc 7d48 9039 50a2 47bd
00000190: bfa3 0f3d e792 933c a71a 99bc 51ac 45bb
000001a0: 5a48 21bb d620 453c 77c2 633c c86d 09bd
000001b0: 1ffb 86bc f13e 3f3c ae67 acbc 1425 13bc
000001c0: 2dd9 aabc 4379 ccbc 0c8a 35bb 30b5 2abd
000001d0: ce5a ee3b 015e 5e3c c951 943c 759c 56bc
000001e0: b963 24bd 1884 a63c aef2 5fbb e35f a7bc
000001f0: 6ab8 48bc a82d cdbc e67f 8f3b e1cf dcbc
00000200: 7670 19bb b8d0 93bb f5ae 913b a589 0000
00000210: e965 873a 5add e8bc dd35 c4bb d760 84bb
00000220: 1021 c63d a2bd 7bbc 7be5 2abc bf2c e53d
00000230: 20a5 593b 6d16 3e3a 08b4 10bb 4c57 353c
00000240: 4b9d 2f3c 0fe5 4cbb aa48 0fbc cc14 013c
00000250: 8dd6 2cbc 16e4 a7bc 00cb 54ba 24b1 81bb
00000260: 7666 cfbb eb64 41bd 7a64 df3d 5302 83bc
00000270: c3cd 9b3b 8857 183c e5cd 35bd 8787 c8bb
00000280: c6cc a13c 7bab 3bbc 1a13 703a 53a0 d83b
00000290: f0d9 a4bb ae86 053c bcf5 5bba db21 66bc
000002a0: 267d e53d a823 a53b bf7c 28bc 759e b3ba
000002b0: 9315 193b 3972 adbc 3689 21bc 6ac3 14bd
000002c0: 5bc4 bf3b 4a07 98bc 2345 bc3b 96bb 16ba
000002d0: 8229 be3d d09f c0ba c9d3 2abb be44 debb
000002e0: 546d 913c 2b91 0dbb e28f babc 1295 00bc
000002f0: 030b 2abc c8ea 82bc 53f5 5a3d 409b 9f3b
00000300: 4a4f d93c 548b d7bc 2677 373c a189 0080
00000310: 6590 f43c 5d64 213b 137e 69bc e719 46bc
00000320: f178 263b 6aaa 39bb 96db 14bc 3c6f 84bb
00000330: 0f45 39bc 3021 3dbc 7d45 c03c 0496 efbb
00000340: 86fb f6bb 729b b2bc c634 1fbc 611b eab9
00000350: 0b54 80bb e6de b33c b87c e2bc e029 7fbc
00000360: 39fb 14bc 0c15 883b 1018 7cbb c48d 90bc
00000370: 94c1 94bd 3ba9 fbbb 3fc8 bbb8 79e1 9fbc
00000380: 9d6f fb3c a89d f2bc 6514 c0ba a0c6 65bd
00000390: 9ee9 503d 2958 7f3c a595 7bbc a949 833a
000003a0: ac8c eabb 3672 b13b f109 323c 6d48 01bd
000003b0: 9bfe 80bc c6d0 ea3c 67f5 92bc be30 e8ba
000003c0: 0baf 87bc 3bf4 a8bc 7986 253c 80e6 27bd
000003d0: efeb 46ba ab10 693c 4910 eb3c 91d9 34bc
000003e0: de1a 23bd 4f53 793c 69f2 05bc 1194 89bc
000003f0: e8ba 1abc 24fb b3bc 9374 2d3b 31be 38bd

model.4.bias f4 [64]
5.6684414e-05 -7.168542e-05 0.00027872802 0.0002493124 9.16973e-05 -9.837266e-05 0.00047997193 -0.00013311525
3.6538735e-05 7.027678e-05 -0.0001695259 4.630713e-05 4.6124667e-05 -0.000100516176 -0.00018952216 -1.9320647e-05
0.00022566825 0.0004094609 -2.253312e-05 -0.0001967465 -5.0456078e-05 -1.2719613e-06 -0.00019481736 -0.00010371648
-0.00028367687 -8.273094e-06 0.00015629061 3.646315e-05 9.42897e-05 -0.00033349986 9.721988e-05 0.00013183884
0.00058432587 0.00050233945 0.00012811848 -9.538861e-05 0.00013593338 0.00017660079 -0.0001854249 -0.00021786953
-0.00027023206 -3.2762906e-05 0.00010798009 0.00026823094 0.0001772882 -0.00013979358 -3.6672755e-06 0.0001642203
0.00014369903 -9.375773e-05 8.236783e-05 -0.0003637606 0.00016499383 -0.00012789451 -8.267073e-05 -4.7832564e-05
-0.00018647246 8.3316554e-05 0.00014571885 0.00011305929 -0.00010050638 -0.00035383407 0.00012269638 -7.869222e-05
00000000: 6dc0 6d38 d155 96b8 3e22 9239 25b6 8239
00000010: 9d4d c038 6b4d ceb8 bea4 fb39 da94 0bb9
00000020: 2b41 1938 8f61 9338 c3c2 31b9 e739 4238
00000030: fc75 4138 36cc d2b8 78ba 46b9 c612 a2b7
00000040: 5ca1 6c39 e9ac d639 8205 bdb7 bd4d 4eb9
00000050: cda0 53b8 42b8 aab5 e347 4cb9 5c82 d9b8
00000060: 77ba 94b9 abcc 0ab7 f1e1 2339 02f0 1838
00000070: 66bd c538 98d9 aeb9 87e2 cb38 383e 0a39
00000080: 722d 193a 6eaf 033a 8b57 0639 5f0b c8b8
00000090: 5789 0e39 ea2d 3939 9e6e 42b9 e873 64b9
000000a0: efad 8db9 e76a 09b8 5f73 e238 59a1 8c39
000000b0: 70e6 3939 8e95 12b9 501b 76b6 8d32 2c39
000000c0: eaad 1639 cc9f c4b8 e4bc ac38 1fb7 beb9
000000d0: 3202 2d39 6c1b 06b9 835f adb8 d39f 48b8
000000e0: d287 43b9 3cba ae38 1bcc 1839 3e1a ed38
000000f0: f4c6 d2b8 ce82 b9b9 0fa8 0039 9007 a5b8

model.5.weight f4 [64]
0.26151836 0.371478 0.75313646 0.40308523 0.257187 0.453399 0.40152648 0.471536
0.38025066 0.39640543 0.38256177 0.2622315 0.25744513 0.26214075 0.2878009 0.34656304
0.3498992 0.55883425 0.2598584 0.38672528 0.25824487 0.33662125 0.2785164 0.35882285
0.66438097 0.25468776 0.25824106 0.25726864 0.3411913 0.27151263 0.3509902 0.36377677
0.38040784 0.4972489 0.6018549 0.2599765 0.26074457 0.26872757 0.25914034 0.4115892
0.64813083 0.2602824 0.3442131 0.40893555 0.36691707 0.54418474 0.29995963 0.41863868
0.25936913 0.25845572 0.3518646 0.76783967 0.3414024 0.2658408 0.36531186 0.33573654
0.39429626 0.36231464 0.34187725 0.53998196 0.796797 0.39798957 0.26114652 0.34287724
00000000: bce5 853e 5d32 be3e 8dcd 403f 3061 ce3e
00000010: 04ae 833e ea23 e83e e194 cd3e 2b6d f13e
00000020: 37b0 c23e a7f5 ca3e 23df c33e 3543 863e
00000030: d9cf 833e 5037 863e a45a 933e b670 b13e
00000040: fd25 b33e c30f 0f3f 290c 853e db00 c63e
00000050: ac38 843e 9f59 ac3e b499 8e3e a1b7 b73e
00000060: df14 2a3f 6f66 823e 2c38 843e b7b8 833e
00000070: a0b0 ae3e b403 8b3e fdb4 b33e f340 ba3e
00000080: d1c4 c23e 6897 fe3e 2a13 1a3f a41b 853e
00000090: 5080 853e a996 893e 0bae 843e d2bb d23e
000000a0: e7eb 253f bc43 853e b33c b03e 0060 d13e
000000b0: 8edc bb3e b14f 0b3f 4f94 993e cf57 d63e
000000c0: 08cc 843e 4f54 843e 9927 b43e 2491 443f
000000d0: 4ccc ae3e 491c 883e 280a bb3e a9e5 ab3e
000000e0: 33e1 c93e 4e81 b93e 890a af3e 423c 0a3f
000000f0: e3fa 4b3f 4ac5 cb3e ffb4 853e 9b8d af3e

model.5.bias f4 [64]
-0.0040395875 -0.07047177 -0.6418895 -0.08615705 0.0030105559 -0.17139861 -0.08769403 -0.13929628
-0.0731908 -0.08211279 -0.07555008 -0.0075982157 -0.005089216 -0.0009874967 -0.017639495 -0.06381799
-0.051870316 -0.2362172 -0.009300362 -0.07588243 -0.0038997717 -0.04663948 -0.0112774735 -0.062772796
-0.4281139 -0.0029720457 -0.0056054834 -0.0012522531 -0.057422858 -0.0077971905 -0.06563759 -0.06481431
-0.07333057 -0.15624547 -0.25929958 -0.0048851254 -0.007405283 -0.006205994 -1.6292619e-05 -0.12021956
-0.33951774 -0.0012159201 -0.06235544 -0.09886379 -0.0698111 -0.18883815 -0.023047188 -0.09765761
-0.0035793001 -0.0025766848 -0.05291228 -0.6851287 -0.05819271 -0.0031373035 -0.064079426 -0.04742975
-0.08062146 -0.061429016 -0.05654844 -0.22902302 -0.70491093 -0.08801197 -0.0045140237 -0.05574869
00000000: 845e 84bb 8153 90bd df52 24bf 1c73 b0bd
00000010: bf4c 453b 1e83 2fbe ed98 b3bd afa3 0ebe
00000020: 0fe5 95bd c02a a8bd 00ba 9abd 74fa f8bb
00000030: 70c3 a6bb e46e 81ba b480 90bc 02b3 82bd
00000040: f875 54bd ece2 71be 8c60 18bc 3f68 9bbd
00000050: 5093 7fbb 0a09 3fbd 27c5 38bc 068f 80bd
00000060: bf31 dbbe a7c6 42bb 34ae b7bb a422 a4ba
00000070: 3b34 6bbd 937f ffbb 006d 86bd 5dbd 84bd
00000080: 562e 96bd d0fe 1fbe eac2 84be 6713 a0bb
00000090: 04a8 f2bb a75b cbbb 22ac 88b7 ac35 f6bd
000000a0: 45d5 adbe 825f 9fba 6b68 7fbd 1979 cabd
000000b0: 1ff9 8ebd ca5e 41be 75cd bcbc b700 c8bd
000000c0: b192 6abb 99dd 28bb 8cba 58bd 9864 2fbf
000000d0: 7b5b 6ebd 389b 4dbb 133c 83bd b345 42bd
000000e0: dd1c a5bd fe9c 7bbd 569f 67bd 0385 6abe
000000f0: 0b75 34bf 9f3f b4bd 60ea 93bb bd58 64bd

model.5.running_mean f4 [64]
-0.012004502 -0.01682306 -0.05428968 -0.012721394 -0.012873376 0.011700107 -0.016417304 -0.0066264723
-0.016196396 -0.016427424 -0.015799087 -0.013720675 -0.012949045 -0.012203336 -0.016472537 -0.020397354
-0.018423453 -0.023871683 -0.011549322 -0.016934382 -0.009975529 -0.018119857 -0.015401453 -0.01734779
-0.046913363 -0.012349139 -0.009904515 -0.011783283 -0.022940107 -0.015936043 -0.01890054 -0.017571453
-0.014423614 -0.02469422 -0.029395109 -0.010441569 -0.010725392 -0.013544244 -0.014618996 -0.004356251
-0.038403317 -0.013645798 -0.0221054 -0.015131702 -0.015502792 -0.02770933 -0.014980507 -0.014346294
-0.012851979 -0.011363568 -0.014224596 -0.055044122 -0.02175565 -0.016296687 -0.014948934 -0.020504968
-0.0146393385 -0.019167773 -0.023767654 -0.026703943 -0.051296674 -0.0140950885 -0.01346236 -0.023386523
00000000: 88ae 44bc 84d0 89bc db5e 5ebd 656d 50bc
00000010: daea 52bc ceb1 3f3c 957d 86bc e122 d9bb
00000020: 4eae 84bc ce92 86bc 166d 81bc afcc 60bc
00000030: 3b28 54bc 80f0 47bc 6af1 86bc 5a18 a7bc
00000040: c8ec 96bc 8c8e c3bc 5e39 3dbc f9b9 8abc
00000050: 6770 23bc 1870 94bc 6056 7cbc f41c 8ebc
00000060: 3a28 40bd 0b54 4abc 8c46 22bc ac0e 41bc
00000070: e4ec bbbc 4e8c 82bc 4ed5 9abc 02f2 8fbc
00000080: 0651 6cbc 884b cabc 03ce f0bc 1d13 2bbc
00000090: 8eb9 2fbc ade8 5dbc 8384 6fbc e2be 8ebb
000000a0: cc4c 1dbd a092 5fbc 6216 b5bc f5ea 77bc
000000b0: 6cff 7dbc adfe e2bc cd70 75bc b80c 6bbc
000000c0: 1b91 52bc 422e 3abc 480e 69bc f275 61bd
000000d0: e838 b2bc a180 85bc 60ec 74bc 09fa a7bc
000000e0: d6d9 6fbc bc05 9dbc 62b4 c2bc 3ac2 dabc
000000f0: 761c 52bd 16ef 66bc 3b91 5cbc 1895 bfbc

model.5.running_var f4 [64]
0.003937176 0.0052857003 0.0018730307 0.005398257 0.003989872 0.0027480735 0.0054813777 0.002216937
0.005059038 0.0053620986 0.005158732 0.0040373807 0.003958192 0.0043255524 0.00420162 0.0048153615
0.0049234787 0.0020254438 0.0039416747 0.0054990826 0.004023988 0.00421698 0.0042420775 0.0044136113
0.0018136923 0.0038984043 0.0039100787 0.0039510075 0.0049703023 0.0036639327 0.004970356 0.004239667
0.0047999364 0.00222139 0.0033223308 0.004061621 0.003909946 0.003924215 0.004190938 0.0026188898
0.0029979963 0.0041159987 0.0050517004 0.0054321466 0.0052266503 0.002713975 0.004304823 0.005390517
0.003968086 0.0041264966 0.004169939 0.0018716379 0.005353967 0.0039371983 0.0042717024 0.004827989
0.0051684813 0.004281576 0.005022437 0.0021982966 0.001828491 0.0053712907 0.0040666936 0.005427935
00000000: 6d03 813b ab33 ad3b 7b80 f53a dde3 b03b
00000010: 79bd 823b 0619 343b 219d b33b 084a 113b
00000020: 49c6 a53b 8bb4 af3b 950a a93b 014c 843b
00000030: b9b3 813b 5dbd 8d3b bead 893b 2eca 9d3b
00000040: 2255 a13b 4fbd 043b 2a29 813b a631 b43b
00000050: a8db 833b 982e 8a3b 2001 8b3b 0ea0 903b
00000060: 6ab9 ed3a 5f7c 7f3b 1e20 803b 7477 813b
00000070: ebdd a23b 971e 703b 5ede a23b e8ec 8a3b
00000080: c948 9d3b bd94 113b 76bb 593b 5917 853b
00000090: 011f 803b b496 803b 2354 893b aea1 2b3b
000000a0: 087a 443b 80df 863b bc88 a53b 2600 b23b
000000b0: 5244 ab3b f2dc 313b 790f 8d3b efa2 b03b
000000c0: b806 823b 9037 873b fca3 883b bf51 f53a
000000d0: 5570 af3b 9d03 813b a3f9 8b3b 1b34 9e3b
000000e0: 5d5c a93b 764c 8c3b 4193 a43b 4c11 103b
000000f0: faa9 ef3a a701 b03b e641 853b d2dc b13b

model.8.weight f4 [1, 64]
-0.26746058 0.29434764 -0.28927648 0.2921366 -0.26672468 -0.21404007 0.29885212 -0.23219404
0.2990945 0.29495722 0.29494295 -0.26449013 -0.2668216 -0.26911485 -0.25793716 0.30121613
0.30465776 -0.23707078 -0.26407847 0.30060053 -0.26616773 0.25600877 -0.26573327 0.23732793
-0.22824262 -0.2632297 -0.26364538 -0.26603642 0.28444415 -0.2624812 0.3059823 0.23977529
0.30195677 -0.20768888 -0.23217767 -0.2680879 -0.2668394 -0.26655003 -0.27049854 -0.21596602
-0.23516463 -0.26749042 0.30313864 0.2944512 0.30021164 -0.21688348 -0.25234956 0.29399472
-0.2662285 -0.26766428 -0.24908146 -0.3034386 0.29008597 -0.2625259 0.23555826 0.29327118
0.29389477 0.2517779 0.27693924 -0.22554383 -0.30794528 0.29289445 -0.26642963 0.284516
00000000: 98f0 88be bcb4 963e 0c1c 94be ee92 953e
00000010: 2390 88be 522d 5bbe 2503 993e 46c4 6dbe
00000020: ea22 993e a204 973e c302 973e 406b 87be
00000030: d79c 88be 6cc9 89be 5710 84be 0039 9a3e
00000040: 1afc 9b3e afc2 72be 4b35 87be 50e8 993e
00000050: 2347 88be 9513 833e 310e 88be 1806 733e
00000060: 6fb8 69be 0bc6 86be 87fc 86be ed35 88be
00000070: aaa2 913e f063 86be b6a9 9c3e a787 753e
00000080: 149a 9a3e 65ac 54be fcbf 6dbe d142 89be
00000090: 2d9f 88be 3f79 88be c97e 8abe 3226 5dbe
000000a0: ffce 70be 81f4 88be fd34 9b3e 4fc2 963e
000000b0: 57b5 993e b416 5ebe f633 81be 7a86 963e
000000c0: 1a4f 88be 4b0b 89be 360f 7fbe 4e5c 9bbe
000000d0: 2686 943e cb69 86be 2f36 713e a427 963e
000000e0: 6079 963e 08e9 803e fbca 8d3e f6f4 66be
000000f0: 01ab 9dbe 43f6 953e 7769 88be 15ac 913e
